algorithms-and-tools/concept3_autogluon/starter/AutogluonModels/ag-20240505_031811/models/NeuralNetFastAI_BAG_L2/S1F7model-internals.pkl (torch, 145044 bytes, 16 tensors)

weight f4 [22]
000000 8d 0d 81 3f cf a9 80 3f ad 16 80 3f f4 f6 7d 3f
       1.008226 1.0051821 1.000692 0.99204946
000010 a9 ae 7e 3f 3c 4d 7e 3f d0 e0 80 3f f2 e2 7f 3f
       0.9948526 0.993366 1.0068607 0.99955666
000020 29 f3 7d 3f cf 23 7f 3f 72 19 81 3f 25 92 80 3f
       0.9919916 0.99664015 1.008589 1.00446
000030 92 9b 7e 3f 1a e2 7d 3f cd 1d 81 3f 69 cd 7d 3f
       0.9945613 0.9917313 1.008722 0.99141556
000040 9a da 80 3f 2e 8c 7e 3f 82 a1 80 3f 98 51 80 3f
       1.0066712 0.9943265 1.0049288 1.00249
000050 85 10 7e 3f 12 46 80 3f
       0.99243957 1.0021384

bias f4 [22]
000000 fd 1b dd bb a0 1c 88 bb d3 d0 01 bc 7e 53 62 3b
       -0.006747721 -0.004153803 -0.007923323 0.0034534629
000010 97 b3 95 3b ea 15 b0 ba e6 c5 01 3c 1f 1a 63 3a
       0.004568528 -0.0013434265 0.007920718 0.0008663255
000020 06 fa c9 bb aa 46 a3 3b 5d 0b 00 3c a4 eb 02 3c
       -0.0061638383 0.004982789 0.007815209 0.007990751
000030 fc cf c8 ba 96 13 fa bb 98 a1 05 bc b3 56 1f 3b
       -0.0015320773 -0.0076317294 -0.008156203 0.0024313151
000040 6a 9e 6d 3b 5b 2e 01 3c a0 5e f0 37 14 3d 37 bb
       0.0036257752 0.007884587 2.8654293e-05 -0.002795999
000050 96 07 0c bb 90 65 2b b8
       -0.0021366826 -4.0864164e-05

running_mean f4 [22]
000000 09 76 9e bd b5 68 c5 3c fa e9 5e bd d0 82 21 3b
       -0.07737357 0.02409778 -0.054422356 0.002464462
000010 3e a9 0d 3c 06 34 d1 bc 14 9b ef bc 7c b6 1a 3d
       0.0086463075 -0.025537502 -0.029248752 0.037771687
000020 33 3b 0e 3d f7 a9 a1 bc ad 1a fa bc a9 b8 ca bc
       0.034724426 -0.019734366 -0.030530298 -0.024746256
000030 fa f0 cb bc 9c a5 17 bd 2d bc 22 3d d8 e6 b7 3b
       -0.02489518 -0.03702317 0.03973024 0.0056122355
000040 cc b8 2c bd 58 e5 4b 3d 70 cb 3f 3a 4c 08 dc bc
       -0.042168424 0.049779266 0.00073163863 -0.026859425
000050 e0 ab 18 3d 84 a1 e9 bb
       0.037273288 -0.00712985

running_var f4 [22]
000000 b3 a9 78 3f df 92 7c 3f df dc 80 3f ed ce 73 3f
       0.9713394 0.9866161 1.0067405 0.9523762
000010 f2 d8 85 3f 22 e4 7b 3f b1 fa 7c 3f 00 48 85 3f
       1.0456831 0.9839498 0.98820025 1.0412598
000020 e1 ae 89 3f e2 e7 83 3f 9f 82 80 3f 13 e9 76 3f
       1.0756494 1.030514 1.0039862 0.96449393
000030 9f 0c 86 3f 60 67 74 3f 93 92 7e 3f be 74 79 3f
       1.0472602 0.9547024 0.99442405 0.9744376
000040 34 45 74 3f a0 de 7d 3f 26 65 77 3f 30 b6 68 3f
       0.95418096 0.99167824 0.96638715 0.90902996
000050 a0 59 7d 3f 79 7b 6c 3f
       0.9896488 0.92375904

weight f4 [200, 22]
000000 c1 57 28 bc 85 fc db 3d 6b 45 37 be ce f4 21 be
       -0.010274828 0.10741524 -0.17897575 -0.15816042
000010 55 b9 b2 bd bf 7e 7d 3d be 07 cc 3a 51 a8 2c 3e
       -0.087267555 0.061888453 0.0015566272 0.16861083
000020 57 15 8b bc e7 45 41 3d 87 ea 64 bd 95 c5 12 bd
       -0.016977949 0.047185805 -0.055887725 -0.03583296
000030 4a 30 5a be e3 53 19 be b2 a8 a6 bd 6a 4e cf 3b
       -0.21307483 -0.14973406 -0.08137645 0.0063264864
000040 a7 21 9b 3d 83 3b 0a 3e d5 78 17 be 32 af b4 bd
       0.07574778 0.13499264 -0.14792188 -0.08822478
000050 2e cc b0 3d 5c 58 2c 3e 8a c8 30 bd 1c cb 20 3e
       0.08632694 0.16830581 -0.04316 0.1570248
000060 e5 67 ee bc c9 22 f5 3c 3b ef 3e 3e 15 9d 47 be
       -0.029102275 0.029923813 0.18645947 -0.19493516
000070 6a 49 0d be 27 9c 4a bd a6 73 a4 bd c6 59 46 3e
       -0.13797536 -0.049465325 -0.08029871 0.19370183
000080 a0 9d 14 be dd d0 d1 bd 29 23 1e be d1 70 51 be
       -0.14513254 -0.10244916 -0.154431 -0.20453192
000090 f1 b9 f5 bd d7 5d 3a 3e f0 4d b8 3d 97 5e db 3d
       -0.11998356 0.1819986 0.089992404 0.10711401
0000a0 f0 5b 32 3c 97 96 f0 bd 69 c3 06 3d 50 08 44 be
       0.010886177 -0.11747473 0.0329012 -0.19143796
0000b0 21 3a 21 be 10 e4 e8 bd e2 33 02 3e 90 fa fa 3d
       -0.1574483 -0.113716245 0.12715104 0.12254822
0000c0 45 e1 c2 bd a3 4c eb bb 91 07 0f 3e d0 ce 55 3e
       -0.09515623 -0.0071807667 0.1396773 0.20879674
0000d0 b8 83 b6 3d a9 20 c3 3c 60 66 17 3e cf c3 f7 bd
       0.08911842 0.023819285 0.14785147 -0.120978944
0000e0 7e b1 1e 3d 54 05 2a be f7 9c 15 be be d4 e0 bd
       0.03874349 -0.16603595 -0.14610659 -0.10978077
0000f0 c9 1e c4 3d ea 32 b4 3d 8f fa 01 be dd 14 83 3d
       0.09576184 0.087987736 -0.12693237 0.06400464
000100 db 76 fa 3d 62 48 02 bd c1 a3 7e 3c c9 c9 57 3d
       0.12229701 -0.03180731 0.015541972 0.05268267
000110 eb da 0e 3e f7 9d 4a 3e 42 10 24 be 16 4e 95 bd
       0.13950698 0.19786821 -0.16021827 -0.07290284
000120 da 2a b2 3d 06 cc 2f 3e 30 62 40 3e b8 b6 42 3e
       0.086995795 0.17167673 0.18787456 0.19015014
000130 9d 11 37 3d 21 43 3d be 7c 99 c9 3c 79 de 03 be
       0.04469453 -0.18482639 0.02460932 -0.12877835
000140 d1 fc 50 be 42 45 3e 3e e1 db 2a 3e 76 f5 60 be
       -0.20408942 0.18581107 0.1668544 -0.21968636
000150 6f 75 1b 3d 0e f4 f1 bc c2 6a 27 bd 1c be cb bd
       0.03795379 -0.02953532 -0.040873297 -0.0994837
000160 78 d3 98 3d 4b 55 f3 bd 3d 04 94 3d 2d 3b ea 3d
       0.074622095 -0.11881503 0.07227371 0.11437068
000170 4d 6e 18 3e d1 8a 92 3d 9a be 60 be 25 66 04 be
       0.14885826 0.071553834 -0.21947709 -0.1292959
000180 74 68 cc 3d 45 cf 3f 3d e7 59 33 be 6f 94 06 be
       0.0998086 0.046828527 -0.17514764 -0.1314256
000190 b5 24 45 3e c1 b5 0a 3e 99 70 ae bd 16 60 39 bd
       0.19252284 0.13545896 -0.0851757 -0.04525765
0001a0 20 49 58 be 70 a8 74 3b f3 d9 1b be 10 56 30 be
       -0.21121645 0.0037331842 -0.1521986 -0.1722033
0001b0 d3 88 73 bc e8 68 23 3d da 6d c3 bd 79 e5 fc 3d
       -0.014864164 0.03989497 -0.09542437 0.12348456
0001c0 e0 e6 09 be 87 08 45 3e 59 43 19 3e c4 8f 3a be
       -0.13466978 0.19241534 0.14967097 -0.18218905
0001d0 12 c5 61 bd 21 44 0e 3c bb 49 0f 3d 8c e9 36 3d
       -0.05511958 0.008683235 0.034982424 0.04465632
0001e0 de 9b b2 3d 63 0d 66 3c 88 ad de bd 0d b3 c8 3d
       0.087211356 0.014041278 -0.10872942 0.09799776
0001f0 a4 6e 4c be e9 1a 01 be 12 94 64 bd ae 20 cb bd
       -0.19964081 -0.12607922 -0.055805273 -0.099183425
000200 09 8f 99 bd a2 de 2e be e9 ab 19 bd 5f 52 1d 3d
       -0.07497985 -0.17077115 -0.037517462 0.038408633
000210 40 73 15 be 16 a1 96 bc 64 10 15 3e 36 ed eb bc
       -0.14594746 -0.018387359 0.14557034 -0.028799634
000220 a6 f8 33 3c fa 85 b5 bc 77 61 3e 3d 27 77 09 3e
       0.010984575 -0.022158612 0.04647967 0.1342436
000230 3b 2b 4d 3e d1 02 04 3e 30 8d 52 3e e4 b2 20 bc
       0.20036022 0.128917 0.20561671 -0.009808276
000240 1e 3a 49 be b1 83 cc bd c4 eb 1a 3e bd 43 15 bc
       -0.19651076 -0.09986056 0.15129 -0.009110388
000250 4e 63 d7 bd 5a ec 20 be 53 eb 53 be bd db 36 be
       -0.10516988 -0.15715161 -0.20695238 -0.17857261
000260 06 7b 13 bd 8f 53 e0 3d b8 16 fa 3d f0 db 57 be
       -0.036005996 0.109534375 0.122113645 -0.21079993
000270 ff be 11 3e 8a c1 31 be a4 d9 35 bd fb 80 a2 bd
       0.14233015 -0.17358986 -0.04439701 -0.07934757
000280 9e 47 09 bd 1e f8 30 bd ea 1b 3c be 09 6b 40 be
       -0.033515565 -0.043205373 -0.18370023 -0.1879083
000290 2f e9 dc bc 16 93 1a 3c 4e ad b6 bd 41 52 b2 3d
       -0.02696666 0.009434482 -0.08919774 0.08707095
0002a0 78 50 4c be 05 cd a4 bc 51 c2 46 3e c3 e3 c0 bd
       -0.19952571 -0.020117292 0.19410063 -0.09418442
0002b0 ca 26 3f 3e 07 65 ac 3d 9c 00 3f be ab 09 03 3e
       0.1866714 0.08417707 -0.18652576 0.12796657
0002c0 4d 04 fd bc 1f 26 cc bd 40 a2 2f 3e 14 59 33 be
       -0.03088584 -0.099682085 0.17151737 -0.1751445
0002d0 f4 ea 8f 3c 8a 0b 27 bd 16 12 22 3e 50 60 5b 3d
       0.017568089 -0.04078249 0.15827212 0.053558648
0002e0 ac 7e cc 3d e6 90 89 3d 8e cc 33 bd 97 40 15 bd
       0.09985098 0.0671709 -0.04389625 -0.03643855
0002f0 81 a2 3a be 45 90 e1 3d 09 88 33 3e 63 ad 10 3e
       -0.18226053 0.11013845 0.17532362 0.14128642
000300 f8 fd 1f be 9b 55 84 3c fd 43 1f be 07 90 ec bd
       -0.15624225 0.016154101 -0.15553279 -0.115509085
000310 26 09 f1 bd 41 0e 89 3d 0e 0d f6 bd 6e 56 2b 3b
       -0.11769323 0.06692172 -0.12014209 0.0026144045
000320 22 d8 8c 3c 39 40 11 3e bd fa 23 be 79 47 1d be
       0.017192904 0.14184655 -0.16013618 -0.15359296
000330 c7 57 07 be 27 b0 20 3e 86 11 ab bd a0 e8 40 3e
       -0.13217078 0.15692197 -0.08352952 0.1883874
000340 59 e7 8c 3d d8 ae 9a 3c 9d 80 aa 3b 18 1e 3e bd
       0.068800636 0.0188822 0.00520332 -0.04641542
000350 9d be 98 3c 76 6a 2b bd 04 4e bc bb 06 7f 9e 3c
       0.018645579 -0.041849576 -0.005746605 0.019347679
000360 2e d5 23 be 31 20 f0 bd ef 23 28 3e 5b 8f 29 be
       -0.1599929 -0.1172489 0.16419958 -0.16558592
000370 88 89 3b bc c4 0d 59 3e 2c 43 9b 3d 9b d2 e7 ba
       -0.011446364 0.21196657 0.075811714 -0.0017686667
000380 99 ff 38 be b9 3a d5 3d fb 30 1d be e9 24 74 bd
       -0.18066253 0.10411591 -0.15350716 -0.059605513
000390 0d 9a 98 bd da e8 df bc 13 c2 13 3b d5 c6 32 3e
       -0.07451258 -0.027332712 0.0022546097 0.17458661
0003a0 53 52 01 3d 21 0b 47 3e 3b 61 00 3e 18 4b 02 be
       0.03157265 0.19437839 0.1253709 -0.12723958
0003b0 60 36 ca 3d 6a 17 1f be f1 a8 aa bd b5 ad 84 3d
       0.098736525 -0.15536276 -0.08333004 0.064784445
0003c0 61 0a 80 3d 1f 2b 29 3e bb ac 7e bd f3 e5 08 3b
       0.062519796 0.16520356 -0.062176447 0.0020889014
0003d0 a8 a0 ed 3d 7c 2c 5a be 4f f4 18 3e 61 3f 33 be
       0.116029084 -0.21306032 0.14936946 -0.17504646
0003e0 15 10 03 3c 0c ac 0d bd 96 ab ea bd 51 f2 e7 3c
       0.00799944 -0.034587905 -0.11458509 0.028313788
0003f0 97 7a 35 3e 1d b6 6a bd ff 4a fb bd 25 94 96 bd
       0.17722546 -0.057302583 -0.12270164 -0.07352475

weight f4 [200]
000000 76 af 7e 3f 07 0a 81 3f be 09 81 3f 08 f2 80 3f
       0.9948648 1.0081185 1.0081098 1.0073862
000010 4c bb 80 3f d6 b7 7e 3f 92 b4 80 3f 44 09 7f 3f
       1.0057158 0.9949926 1.0055106 0.99623513
000020 6b 16 80 3f d1 d8 7d 3f e1 58 80 3f bb 8d 7e 3f
       1.0006841 0.9915896 1.0027124 0.99435014
000030 6c 99 80 3f 19 f6 7d 3f 17 3e 7f 3f 17 07 81 3f
       1.0046821 0.9920364 0.99704117 1.0080289
000040 52 96 7f 3f cf 63 80 3f ea f7 7e 3f f9 40 80 3f
       0.99838746 1.0030459 0.99597037 1.0019828
000050 a9 54 80 3f 12 41 7e 3f 69 67 7f 3f 37 10 81 3f
       1.0025836 0.9931804 0.99767166 1.0083073
000060 dd bf 80 3f 69 b0 80 3f 10 b7 7f 3f 7b ee 80 3f
       1.0058552 1.0053836 0.99888706 1.0072778
000070 50 d3 7e 3f 97 3c 80 3f dc e9 7d 3f 0d 1d 81 3f
       0.9954119 1.001849 0.99184966 1.008699
000080 c2 fb 7f 3f 04 0e 81 3f 91 b3 80 3f f6 fb 7d 3f
       0.99993527 1.0082402 1.0054799 0.99212587
000090 00 eb 7d 3f e5 5c 80 3f ad d7 80 3f 05 33 7e 3f
       0.99186707 1.0028349 1.0065819 0.992966
0000a0 90 eb 7e 3f b0 8b 7d 3f d9 bd 80 3f 29 da 80 3f
       0.9957819 0.9904127 1.0057937 1.0066577
0000b0 b3 6e 7e 3f c8 e9 7d 3f 1d 25 7e 3f 84 79 7e 3f
       0.99387664 0.99184847 0.9927538 0.9940417
0000c0 50 3e 7e 3f 7b b3 7d 3f ca d2 80 3f c3 eb 80 3f
       0.9931383 0.9910199 1.0064328 1.0071949
0000d0 ce 3e 80 3f 63 32 7f 3f 0e 7f 80 3f 78 f7 7e 3f
       1.0019166 0.9968626 1.0038774 0.9959636
0000e0 62 69 7e 3f 74 12 7e 3f e9 c0 80 3f 67 5d 7f 3f
       0.9937955 0.9924691 1.0058872 0.99751896
0000f0 67 f6 80 3f 84 9f 7e 3f c3 7c 80 3f 62 23 81 3f
       1.0075196 0.9946215 1.0038074 1.0088923
000100 23 02 7e 3f 47 d0 7d 3f a9 70 7e 3f 50 07 81 3f
       0.9922201 0.9914593 0.99390656 1.0080357
000110 56 c0 7e 3f 00 1e 80 3f be 02 81 3f 61 f2 7d 3f
       0.9951223 1.0009155 1.0078962 0.99197966
000120 5f f2 80 3f fc 0a 7e 3f 74 09 81 3f 8a c7 7f 3f
       1.0073966 0.9923551 1.008101 0.9991385
000130 94 b5 80 3f 94 14 7e 3f e7 57 7f 3f 5f 25 80 3f
       1.0055413 0.9925015 0.99743503 1.0011405
000140 40 ca 80 3f a1 30 7e 3f 98 e2 7d 3f 31 d0 80 3f
       1.0061722 0.9929295 0.9917388 1.0063535
000150 e0 ec 80 3f 8d 52 80 3f 10 f8 80 3f b5 97 7f 3f
       1.0072289 1.0025192 1.0075703 0.9984086
000160 54 0b 7e 3f ea 53 7e 3f 01 a6 80 3f 77 00 80 3f
       0.99236035 0.9934679 1.005066 1.0000142
000170 7d b1 7f 3f 6d 9e 80 3f 4b 5c 7e 3f 6e 92 7f 3f
       0.998802 1.0048348 0.9935958 0.9983281
000180 5a 50 7e 3f 9b 87 7e 3f d7 f7 80 3f 49 f0 7d 3f
       0.99341357 0.9942567 1.0075635 0.9919477
000190 e7 7b 7f 3f ec c0 80 3f d5 d9 7f 3f 78 63 80 3f
       0.99798435 1.0058875 0.9994176 1.0030355
0001a0 d4 71 80 3f 94 dc 80 3f 2c 01 7e 3f dc af 80 3f
       1.0034738 1.0067315 0.9922054 1.0053668
0001b0 66 a3 80 3f 17 a4 80 3f ac f0 7f 3f 3b 98 80 3f
       1.0049865 1.0050076 0.9997661 1.0046457
0001c0 f9 7a 80 3f a4 2b 80 3f 0f 02 81 3f 88 30 81 3f
       1.0037528 1.0013318 1.0078753 1.0092936
0001d0 f0 49 7f 3f 0d 20 81 3f b8 42 7f 3f c4 24 80 3f
       0.99722195 1.0087906 0.9971118 1.001122
0001e0 f6 c6 7e 3f 33 d9 80 3f e8 ec 80 3f a4 01 81 3f
       0.9952234 1.0066284 1.0072298 1.0078626
0001f0 08 ee 80 3f 5c ef 80 3f fa 99 7e 3f 26 c6 80 3f
       1.0072641 1.0073047 0.994537 1.006047
000200 02 dd 80 3f cf cb 80 3f a0 88 7f 3f 5d f8 80 3f
       1.0067446 1.0062197 0.9981785 1.0075794
000210 b1 c0 80 3f 8d 28 80 3f 20 94 80 3f e1 eb 80 3f
       1.0058805 1.0012375 1.0045204 1.0071985
000220 38 dd 7d 3f 62 79 7d 3f b7 c4 7e 3f 60 35 7e 3f
       0.9916568 0.9901334 0.99518913 0.99300194
000230 f3 7f 7e 3f f8 4b 80 3f dd d0 80 3f ff 25 81 3f
       0.99413985 1.0023184 1.006374 1.008972
000240 d8 d9 7d 3f 0b aa 80 3f 39 33 81 3f c3 b4 7f 3f
       0.9916053 1.0051893 1.0093757 0.99885195
000250 66 20 81 3f b7 0a 7e 3f 92 20 7e 3f 62 21 7e 3f
       1.0088012 0.992351 0.9926845 0.9926969
000260 0e 85 80 3f bf ab 7e 3f e2 25 80 3f e4 db 7d 3f
       1.0040605 0.99480814 1.0011561 0.9916365
000270 ba 21 81 3f c4 1b 7e 3f 40 04 7e 3f 12 2c 7f 3f
       1.0088418 0.99261117 0.99225235 0.9967662
000280 02 d7 7d 3f 07 4b 7e 3f 32 bc 7d 3f 3d 71 7e 3f
       0.991562 0.9933323 0.9911529 0.9939154
000290 20 0d 7e 3f 85 5b 7f 3f 28 29 80 3f c8 9c 7f 3f
       0.9923878 0.9974902 1.001256 0.99848604
0002a0 f1 34 7e 3f fc 95 7f 3f ac c4 7f 3f 49 c7 80 3f
       0.9929953 0.99838233 0.9990947 1.0060817
0002b0 58 d2 80 3f 43 e3 7d 3f 0f a0 7d 3f f5 93 7e 3f
       1.0064192 0.991749 0.99072355 0.99444515
0002c0 60 1e 80 3f bb ee 80 3f cb 0c 81 3f e4 2a 7e 3f
       1.000927 1.0072855 1.0082029 0.99284196
0002d0 7e 68 80 3f f8 7b 80 3f eb ff 80 3f 90 ba 7e 3f
       1.0031888 1.0037832 1.00781 0.9950342
0002e0 2f 2e 81 3f 4d 2f 7e 3f 53 30 81 3f b9 e5 80 3f
       1.0092219 0.99290925 1.0092872 1.0070106
0002f0 16 b7 7e 3f 07 60 7e 3f 77 3b 81 3f d4 3b 7f 3f
       0.99498117 0.99365276 1.0096272 0.99700665
000300 e8 b2 7f 3f 03 ef 80 3f 85 a6 7f 3f a7 41 7f 3f
       0.99882364 1.007294 0.99863464 0.9970955
000310 65 e1 7d 3f ef 79 7e 3f 7c c3 80 3f 2d 12 81 3f
       0.9917205 0.99404806 1.0059657 1.0083672

bias f4 [200]
000000 26 2f f0 3b 39 9b ea bb a7 eb 17 bb 46 0b c7 39
       0.0073298393 -0.0071596173 -0.0023181231 0.00037964637
000010 a8 bd 98 bb b9 ca fe 3b 71 36 83 3b 3d 6c cf 3b
       -0.0046612807 0.0077756313 0.0040042927 0.0063300417
000020 2c 8d 57 bb c6 f1 b7 3b 17 6d b3 bb 9b aa bb 3b
       -0.0032890541 0.0056135384 -0.005475651 0.005727125
000030 4a 7c 9f bb 6e 78 0e 3a 71 40 95 bb ab 32 c7 bb
       -0.0048671113 0.00054348155 -0.004554801 -0.006079038
000040 e2 34 fc bb ff c3 1c 3c 5a fc dd 3b 94 fd cb 3b
       -0.007696734 0.0095682135 0.0067744674 0.006225297
000050 80 a0 6b 3b f0 30 fe 39 bf 78 03 3c 17 be f0 3b
       0.003595382 0.00048483117 0.008024394 0.007346879
000060 52 28 46 bb 88 77 f8 3b 69 a1 d7 bb 30 da 0d 39
       -0.0030236435 0.0075826086 -0.006580521 0.00013528089
000070 4a 52 eb 3b d3 55 61 bb 35 03 e7 bb 38 62 94 3b
       0.0071814405 -0.003438343 -0.007049943 0.00452831
000080 c5 90 66 39 ea 7d 9b 3b 1b ce 05 bc b1 f5 d2 bb
       0.0002198844 0.0047452347 -0.008166815 -0.00643798
000090 f3 85 8b 3b 36 b9 b8 3b 5e 06 24 bb 8a 9e d5 bb
       0.0042579114 0.0056373132 -0.002502821 -0.0065191435
0000a0 8e b2 fb 3b c6 45 04 3c 92 e4 d0 ba 14 96 1d 3c
       0.0076811975 0.008073276 -0.001593726 0.009618301
0000b0 01 ee e6 3b cd b5 e9 bb d8 9e 05 3c fe c5 cb 39
       0.0070474152 -0.007132268 0.008155547 0.00038866693
0000c0 7d 7f 0c 3c e4 c3 1b ba b2 7d 8d ba 23 37 b3 3b
       0.008575317 -0.0005941971 -0.0010794906 0.0054692193
0000d0 d1 60 bc bb 5c 20 4b bb bf 11 9e bb e4 54 bd bb
       -0.005748846 -0.003099463 -0.004823893 -0.005777942
0000e0 07 6c 9e bb 42 79 fd ba 4f c5 08 3c f5 77 31 3c
       -0.004834655 -0.0019338506 0.008347823 0.010831823
0000f0 d0 a1 bc 3b 7c a6 b1 bb c6 22 12 3c 96 12 dc bb
       0.0057565942 -0.005421458 0.008919423 -0.006716083
000100 ef 7e 9d 3b c9 c4 32 bb a2 1e 88 b9 7e ae ca 3b
       0.0048063914 -0.0027277938 -0.00025962765 0.006185352
000110 1e c1 c2 3b 82 3a 23 3c 18 c3 0d 3c b9 2d e0 3b
       0.0059434315 0.00996268 0.008652471 0.006841388
000120 10 7a 4d bb 98 ee 2c b9 ea 7b 10 3b 15 26 92 3b
       -0.0031353272 -0.00016492081 0.0022046515 0.004460106
000130 f2 c7 bb 39 59 9e 9c bb 50 cb 8f bb 9f 74 ec 3b
       0.0003581639 -0.0047796187 -0.0043882504 0.0072160508
000140 27 2f c3 bb a8 ee 35 bb 54 3e 4a 3b ee 84 f4 bb
       -0.0059565487 -0.0027760658 0.0030859904 -0.0074621355
000150 99 57 26 3c 8c 25 eb 3b 4a 51 9e 3b 1c 8b 08 3c
       0.010152721 0.007176107 0.0048314678 0.0083339475
000160 9e a0 48 bb ea 8f de bb b0 12 ac bb 34 33 57 bb
       -0.0030613313 -0.0067920582 -0.005251251 -0.0032836916
000170 df b3 bf 38 b4 1b 24 3c b7 41 a0 bb 25 33 b8 ba
       9.141093e-05 0.010016371 -0.0048906463 -0.0014053328
000180 ab c9 4d bb 50 55 8d bb 8a 8f 1f 3b ba 51 0e 3c
       -0.003140072 -0.0043131486 0.002434703 0.008686477
000190 d8 8d f4 b9 64 cf 06 bb 2a 22 87 bb c4 81 09 3a
       -0.00046644988 -0.0020570392 -0.0041239457 0.0005245472
0001a0 6e 39 b3 bb 6f e6 9c bb ad 01 6e bb c4 9a 11 bb
       -0.0054694926 -0.004788212 -0.0036316917 -0.0022217492
0001b0 56 c3 c8 3b ee 4b 70 bb 62 50 ac bb 9c f3 0c 3b
       0.0061268015 -0.0036666351 -0.005258606 0.0021507507
0001c0 32 23 ef 3b 69 e5 b2 3b 83 57 9b bb 9e 55 51 bb
       0.007297897 0.0054594767 -0.004740657 -0.00319419
0001d0 2f 0a cb 3b f2 b9 b4 bb 11 da 84 3b 08 39 88 bb
       0.0061962823 -0.0055153305 0.004054316 -0.0041571893
0001e0 68 8f 65 3b 76 55 8c bb f1 f6 f0 ba 67 ad aa bb
       0.0035028104 -0.0042826487 -0.0018384141 -0.0052086595
0001f0 86 c2 83 3b f0 56 33 3b 91 24 b5 bb 2e a1 c1 bb
       0.0040209917 0.0027365051 -0.0055280407 -0.0059091067
000200 ea 82 67 3b bf 4d 04 bb fa 6a 28 3c 24 d7 e1 39
       0.0035325834 -0.0020187942 0.010279411 0.00043075636
000210 e1 ef a3 3b 4e 01 c4 3b 1a 22 c0 bb 64 52 7f 3b
       0.005002961 0.005981601 -0.00586344 0.003895902
000220 36 05 e2 bb ac e1 f3 bb fb 1e ab 3a 9c 14 bb 3b
       -0.006897594 -0.0074426737 0.0013055498 0.005709244
000230 2b 17 1d 3b 66 c3 07 bc 7c 96 7f 3b 86 f2 20 3c
       0.0023970108 -0.008286333 0.0038999608 0.009823447
000240 82 8e e1 3b e3 ea 02 3c 6a 98 1f 3b a7 eb 57 3b
       0.0068834433 0.007990572 0.002435232 0.0032946856
000250 77 59 04 ba e3 fa 53 bb 10 c6 f4 bb 0b b4 b4 bb
       -0.00050487317 -0.0032345585 -0.0074699 -0.005514627
000260 09 e1 84 3b ee cf a9 3a 28 f4 1c 3b 9f 2a 04 3c
       0.0040551466 0.0012955645 0.002394924 0.008066802
000270 35 91 c4 3b 0c bb 72 3a 28 7c 0a 3c 46 58 95 b9
       0.0059987553 0.00092594395 0.008452453 -0.00028485263
000280 06 ab b7 bb 80 55 0e 3c 60 43 a5 bb e2 88 08 3c
       -0.0056051044 0.008687377 -0.005043432 0.008333417
000290 6d 8d 89 3a 5a 84 22 39 d2 0c fb 3b 64 09 36 3a
       0.0010494419 0.00015498829 0.0076614404 0.00069441483
0002a0 84 01 7f bb 5d 78 e3 3b 1a 13 09 3c e0 8e bf bb
       -0.0038910815 0.0069418387 0.008366371 -0.0058458894
0002b0 84 1f 0e 3c 4c 09 03 3c 31 69 90 ba aa 0e 0d 3c
       0.008674506 0.007997822 -0.0011017678 0.008609453
0002c0 5d 25 8d bb 52 a7 dd b9 84 09 55 bb a7 88 4c 3b
       -0.0043074326 -0.00042277068 -0.0032506892 0.003120938
0002d0 e9 f9 a9 3b 4b 61 c3 bb aa ad 10 bb 80 a6 04 3c
       0.0051872623 -0.005962526 -0.0022076168 0.008096337
0002e0 d4 68 b6 3b 7f 31 2a bb 00 96 e0 3b f8 4f 8b bb
       0.0055666957 -0.0025969443 0.006853819 -0.0042514764
0002f0 e5 f3 d5 3b 5a 3f 17 3c 0f e7 9d 3b a2 39 c9 3a
       0.0065293186 0.009231413 0.004818804 0.0015352259
000300 cc 75 12 bc 8a 13 5c 3a 90 6e 4d 3b 56 53 b5 3a
       -0.008939218 0.00083952455 0.0031346418 0.001383404
000310 01 27 52 3b 4e a6 0e bb 3d dc d7 3b 20 a4 55 bb
       0.0032066705 -0.0021766606 0.0065875337 -0.0032599047

running_mean f4 [200]
000000 41 1b 29 3e 12 46 61 3e 8a f5 fe 3d 0d 25 46 3e
       0.16514303 0.21999386 0.124491766 0.19350071
000010 71 77 ec 3d 67 3d da 3d 32 07 ff 3d d8 fe 32 3e
       0.11546219 0.10656243 0.12452544 0.17480028
000020 26 38 be 3d 71 23 22 3e 34 55 e6 3d 80 79 c7 3d
       0.09288053 0.15833832 0.1124672 0.09739971
000030 34 fc 0b 3e 08 6c df 3d d7 62 a3 3d 91 49 28 3e
       0.13670427 0.10909277 0.079778366 0.16434313
000040 bc 06 fc 3d 43 82 56 3e 8f 07 1c 3e c1 9e 24 3e
       0.12305972 0.20948128 0.15237258 0.16076185
000050 d8 0b 21 3e 5d 61 10 3e 4d 0f 88 3e 12 95 b3 3d
       0.15727174 0.14099641 0.26574174 0.08768667
000060 b0 0b 2c 3e e1 31 0d 3e 51 b4 59 3e 49 d0 58 3e
       0.16801333 0.13788559 0.21260192 0.21173204
000070 dd 1a 0a 3e d0 24 40 3e 84 26 dc 3d 26 d6 02 3e
       0.1348681 0.18764043 0.10749534 0.12777004
000080 27 81 c4 3d 89 08 3b 3e 76 69 66 3e 20 53 2f 3e
       0.09594946 0.18264975 0.22501168 0.17121553
000090 ed c0 04 3e 96 f8 ac 3d bb 71 bd 3d 74 54 32 3e
       0.1296422 0.084458515 0.09250208 0.17415029
0000a0 24 92 e8 3d 32 04 4f 3e e0 7f 8d 3e 97 62 36 3e
       0.11355999 0.20216444 0.27636623 0.17811047
0000b0 a8 42 0a 3e 2d 8e ed 3d 17 9f ff 3d 46 9e 1d 3e
       0.1350199 0.115993835 0.12481516 0.15392408
0000c0 c4 a8 38 3e 7d 23 d8 3d 0c df f5 3d e2 c3 f0 3d
       0.18033129 0.10553644 0.120054334 0.11756112
0000d0 f4 84 36 3e ba 3f bf 3d 56 53 8e 3e f1 07 4a 3e
       0.17824155 0.09338327 0.27797955 0.19729592
0000e0 60 d7 1a 3e 1c 3b f4 3d ed 04 20 3e 1d 08 25 3e
       0.15121222 0.11925337 0.15626879 0.16116376
0000f0 27 76 18 3e b9 e3 30 3e 2e 01 e6 3d 16 0d 1b 3e
       0.14888822 0.1727437 0.11230694 0.1514171
000100 df e4 21 3e 9d 30 68 3e 7e fc 09 3e d0 e6 0a 3e
       0.15809964 0.22674794 0.13475224 0.1356461
000110 18 14 a8 3d 42 aa b9 3d 0d 23 04 3e a4 4b 19 3e
       0.082069576 0.09065677 0.12903996 0.14970261
000120 03 50 16 3e 70 89 21 3e 4d 36 58 3e e8 22 d8 3d
       0.1467896 0.15775084 0.21114464 0.10553533
000130 7c 2c 62 3e e7 ae d0 3d 0c 70 d8 3d 81 ae fc 3d
       0.22087282 0.1018961 0.10568246 0.123379715
000140 05 b0 0e 3e d8 9c dd 3d e0 d7 b0 3d 44 06 0a 3e
       0.13934334 0.10820931 0.08634925 0.13478953
000150 5f 25 e3 3d d3 d0 d5 3d 0a ec 15 3e 80 12 d7 3d
       0.11091112 0.10440221 0.14640823 0.105015755
000160 c4 5c e8 3d 86 f9 cf 3d f0 7e 00 3e 6f 31 ec 3d
       0.11345819 0.10155015 0.12548423 0.11532866
000170 b4 d5 af 3d 6b 0f 18 3e a0 a2 fc 3d db 06 ed 3d
       0.085856825 0.14849631 0.12335706 0.11573573
000180 56 cd 12 3e 64 9a b4 3d 50 63 3b 3e 98 89 b8 3d
       0.14336142 0.0881851 0.18299603 0.09010619
000190 e3 79 ee 3d b5 ca b8 3d b6 75 15 3e 57 3d 18 3e
       0.11644342 0.09023038 0.14595684 0.1486715
0001a0 f4 6f 35 3e 19 77 a4 3d 58 07 88 3e 0e ff 01 3e
       0.17718488 0.080305286 0.26568103 0.12694952
0001b0 bc 70 13 3e 50 26 e0 3d 1b c3 b4 3d 3f 88 b1 3d
       0.14398474 0.109448075 0.08826276 0.08668565
0001c0 74 2b 18 3e 80 60 42 3e 44 2c f1 3d 52 90 18 3e
       0.14860326 0.18982124 0.11776021 0.14898804
0001d0 8a 41 ec 3d 6b f4 2e 3e dd 86 bf 3d cc b2 f9 3d
       0.11535938 0.17085426 0.09351895 0.12192306
0001e0 cc a0 02 3e 98 a3 18 3e a0 b8 94 3d 0e 8b 98 3e
       0.12756652 0.14906156 0.07261777 0.2979359
0001f0 1f e8 16 3e 91 ae ef 3d 0f c1 fa 3d a6 d9 ac 3d
       0.14736985 0.11703218 0.12243854 0.08439951
000200 c9 99 e0 3d c6 58 16 3e c0 00 db 3d 82 ac 2e 3e
       0.10966832 0.14682302 0.106935024 0.17057994
000210 89 c0 34 3e fe 79 d5 3d 46 dd 9d 3d a1 0d 03 3e
       0.17651571 0.10423659 0.0770822 0.12798168
000220 4b f0 f6 3d a1 0d d5 3d dd be 16 3e 6d e9 dd 3d
       0.12057551 0.1040299 0.14721246 0.10835538
000230 31 58 16 3e e2 b1 bd 3d 5e 18 ff 3d 66 9b 61 3e
       0.1468208 0.09262444 0.124558195 0.22031936
000240 f7 f7 8f 3d 9c e3 cc 3d f1 07 03 3e 00 09 d8 3d
       0.070297174 0.100043505 0.12795998 0.105485916
000250 b9 0e 03 3e ff 9a 0f 3e fa bd 14 3e e2 f4 ff 3d
       0.12798585 0.1402397 0.14525595 0.124978796
000260 ca 26 c9 3d 81 d2 d6 3d 2c 12 0b 3e c1 c3 3d 3e
       0.098218516 0.10489369 0.13581151 0.18531705
000270 e6 49 34 3e 38 09 62 3e 3f e8 f1 3d 5e 9d 05 3e
       0.17606315 0.22073829 0.118118756 0.13048312
000280 55 62 27 3e 90 e1 13 3e a8 a0 7c 3e a8 fd dd 3d
       0.16346104 0.14441514 0.2467066 0.10839397
000290 32 7f f2 3d c4 9e ca 3d 08 e4 b5 3d 28 b0 fd 3d
       0.11840667 0.098935634 0.08881384 0.12387115
0002a0 7c 08 25 3e 2b 20 f9 3d 64 12 cb 3d a9 d5 36 3e
       0.16116518 0.12164339 0.09915617 0.17854942
0002b0 a1 11 3b 3e a0 e0 6f 3e 20 99 0b 3e 28 00 ee 3d
       0.18268444 0.23425531 0.13632631 0.116211236
0002c0 ef 1c d7 3d b3 32 c7 3d fe 73 2e 3e cc d7 1b 3e
       0.105035655 0.09726467 0.17036435 0.15219039
0002d0 cb c3 06 3e 99 50 4d 3e 4e 8f 33 3e 4e 60 22 3e
       0.13160627 0.20050277 0.17535135 0.1585705
0002e0 42 68 00 3e b3 95 c0 3d 7a e1 22 3e 42 c2 11 3e
       0.12539771 0.09403553 0.15906325 0.1423426
0002f0 8d ab d2 3d 54 f3 d7 3d e9 78 43 3e fc f9 b8 3d
       0.10286627 0.10544458 0.19089092 0.09032056
000300 49 ee 16 3e d0 7e 0d 3e 52 9f bc 3d 1c e1 24 3e
       0.14739336 0.13817906 0.092100754 0.16101497
000310 68 27 f1 3d 76 42 ec 3d 28 e5 00 3e 09 03 ff 3d
       0.11775094 0.11536114 0.12587416 0.12451751

running_var f4 [200]
000000 7c bd ee 3e ef ae 07 3f 90 81 e1 3e 5c 9d fe 3e
       0.4662894 0.530013 0.4404416 0.4972943
000010 ff 43 dd 3e 38 4c dc 3e 0d 62 df 3e 63 e9 ee 3e
       0.4321594 0.430269 0.43629494 0.46662435
000020 8d 6b d5 3e b3 9e f3 3e 08 2f de 3e c9 0f d6 3e
       0.41683617 0.47582015 0.43395257 0.41808918
000030 35 c5 df 3e c6 1b d8 3e 18 a9 d1 3e 9f fb f6 3e
       0.43705145 0.4220869 0.4094932 0.48238847
000040 14 fa df 3e a6 9d 0c 3f b6 df f3 3e 4c 2a f0 3e
       0.43745482 0.5492805 0.47631615 0.4690727
000050 cf 78 e7 3e 9c 0a f5 3e 27 70 0d 3f c1 3c d4 3e
       0.45209357 0.47859657 0.55249256 0.41452602
000060 f5 36 f2 3e 5a e1 ee 3e bd a3 06 3f 43 ee 0f 3f
       0.47307554 0.46656305 0.52593595 0.56222934
000070 75 ad df 3e 7b d5 03 3f 47 ac db 3e 69 8e e5 3e
       0.43687025 0.5149762 0.42904875 0.44835213
000080 29 0d d7 3e 3c 83 00 3f 1a 66 08 3f 26 58 f5 3e
       0.42002228 0.5020025 0.53280795 0.47918814
000090 b9 45 de 3e 20 b6 d3 3e ff 3e db 3e fb f3 00 3f
       0.4341257 0.41349888 0.428215 0.50372285
0000a0 14 3e e0 3e 92 8a fc 3e ee 58 25 3f 9e a4 fc 3e
       0.43797362 0.4932447 0.6458882 0.49344343
0000b0 82 ce ea 3e 39 44 de 3e 74 13 dc 3e 7d 70 e3 3e
       0.45860678 0.43411425 0.42983592 0.4442176
0000c0 13 d7 eb 3e cf 39 d6 3e 4b 00 e2 3e 8b d8 e1 3e
       0.46062526 0.4184098 0.4414085 0.44110522
0000d0 77 72 f2 3e 71 bc d6 3e 8f 24 1f 3f c9 be f7 3e
       0.47352955 0.41940644 0.6216516 0.48387745
0000e0 f9 68 e7 3e 75 6b df 3e 54 b4 f1 3e 2c 93 ea 3e
       0.45197275 0.4363667 0.47207892 0.45815408
0000f0 99 c9 ee 3e 0d 83 eb 3e cd 1f d8 3e 80 6b ed 3e
       0.46638182 0.4599842 0.42211762 0.46371078
000100 e3 24 eb 3e 49 de 02 3f 52 37 e5 3e b8 0c e6 3e
       0.4592658 0.5112043 0.4476877 0.4493158
000110 88 52 d1 3e c2 58 d3 3e cf df ea 3e b4 89 ef 3e
       0.4088328 0.41278654 0.45873877 0.46784747
000120 6c 72 ed 3e 03 70 e3 3e e5 84 12 3f 7e 07 db 3e
       0.4637636 0.44421396 0.5723403 0.42779154
000130 ad ad 06 3f 3e 71 d8 3e 13 9b d8 3e f2 7a e2 3e
       0.5260876 0.42273897 0.42305812 0.44234425
000140 ce 10 e3 3e a4 4c db 3e e0 b2 d2 3e 1d 30 df 3e
       0.44348758 0.4283191 0.41152096 0.43591395
000150 93 d5 df 3e 42 87 dc 3e 49 c8 e3 3e 2a 12 d8 3e
       0.43717632 0.43071944 0.44488743 0.42201358
000160 ab db df 3e 56 f0 d7 3e 7d 7c de 3e 4e db db 3e
       0.4372228 0.4217555 0.43454352 0.42940754
000170 e8 81 d3 3e f6 8c e8 3e 71 c3 df 3e f4 1f df 3e
       0.41310048 0.45420045 0.43703797 0.43579066
000180 81 c3 df 3e 6c 46 d2 3e 4d 78 03 3f b7 d9 d2 3e
       0.43703845 0.41069353 0.5135544 0.41181728
000190 61 a5 e3 3e e9 5d d4 3e 62 3b eb 3e 94 9b ec 3e
       0.44462112 0.41477898 0.45943743 0.46212447
0001a0 93 c5 f9 3e 12 d3 cf 3e a9 35 08 3f c0 63 de 3e
       0.4878355 0.4059072 0.5320688 0.43435478
0001b0 5f 21 ee 3e 57 2a dd 3e 8c 87 da 3e 66 a6 d0 3e
       0.46509835 0.43196365 0.4268154 0.40751952
0001c0 e0 00 ef 3e d4 c6 f8 3e b8 93 e3 3e 9a 65 e5 3e
       0.46680355 0.48589194 0.44448638 0.44804078
0001d0 7c 7d e0 3e 29 30 f7 3e 03 fc d7 3e 51 c0 e0 3e
       0.43845737 0.4827893 0.42184457 0.43896726
0001e0 39 c0 e9 3e 47 8d f0 3e ed 47 d1 3e 0a 36 18 3f
       0.45654467 0.46982786 0.40875188 0.5945746
0001f0 34 07 ee 3e d3 be e0 3e ff cf e2 3e 67 fd d5 3e
       0.4648987 0.43895587 0.44299313 0.41794893
000200 9f 9c dc 3e 87 92 f0 3e f9 48 dc 3e 9b 4c fd 3e
       0.43088242 0.46986791 0.43024424 0.49472508
000210 55 bc ef 3e ec 8a dc 3e 5e 7a d2 3e 5d 6a e2 3e
       0.46823373 0.4307474 0.41108984 0.44221774
000220 c6 ce d9 3e aa de d5 3e b6 68 e5 3e 9a 2e dc 3e
       0.42540568 0.41771442 0.4480645 0.43004304
000230 89 b0 ef 3e 5a 90 d2 3e 6a 47 e4 3e da d5 0f 3f
       0.46814373 0.41125757 0.44585735 0.56185687
000240 95 1a d0 3e fb 80 dd 3e 44 9e e6 3e c7 47 da 3e
       0.4064528 0.43262467 0.45042622 0.42632887
000250 b6 df e3 3e 69 31 f0 3e 29 37 e6 3e e9 5e e6 3e
       0.44506615 0.46912697 0.4496396 0.44994286
000260 de dd d7 3e 86 3d da 3e dc 3a e9 3e ec 43 fe 3e
       0.4216146 0.42625064 0.4555272 0.49661195
000270 89 ac 01 3f 93 22 fe 3e d6 88 e4 3e b0 a7 dc 3e
       0.5065389 0.49635753 0.44635648 0.43096685
000280 45 fc fc 3e bf 55 e8 3e 70 f0 16 3f 59 35 d5 3e
       0.49411216 0.4537792 0.5896063 0.41642264
000290 e1 41 dd 3e d8 38 d5 3e d7 28 d5 3e 6e 5e e1 3e
       0.43214324 0.4164493 0.4163272 0.44017357
0002a0 4f 07 f7 3e ac b0 e3 3e b4 9e d5 3e f1 18 fb 3e
       0.48247764 0.44470727 0.41722643 0.49042466
0002b0 87 b5 00 3f 6f 60 0d 3f 81 f2 df 3e a0 57 e1 3e
       0.5027699 0.5522527 0.43739703 0.44012165
0002c0 cf 77 d9 3e 29 13 dd 3e 8b 62 f2 3e 8d b1 e6 3e
       0.4247422 0.4317868 0.47340807 0.45057335
0002d0 1e c3 e9 3e e3 38 06 3f a6 60 fe 3e 75 ce fd 3e
       0.45656675 0.5243055 0.49683112 0.49571577
0002e0 d8 de e1 3e 5c f6 d4 3e 49 c0 e6 3e 40 39 e1 3e
       0.4411533 0.41594207 0.45068577 0.4398899
0002f0 32 05 dd 3e 17 88 d8 3e d7 10 fe 3e 19 b0 d4 3e
       0.43168026 0.42291328 0.49622223 0.41540602
000300 f7 3a f2 3e 87 06 e9 3e 0c 86 d5 3e 3c 2d fd 3e
       0.47310612 0.45512792 0.41703832 0.49448574
000310 9d 38 de 3e 43 7b da 3e c3 f7 df 3e fa 76 df 3e
       0.43402568 0.42672166 0.43743715 0.4364546

weight f4 [100, 200]
000000 1a cd 35 bd b7 f0 a0 bc c0 f1 fc 3c fb fc ea 3c
       -0.044385053 -0.019646032 0.030876994 0.028685084
000010 2f e3 90 3d f1 54 a0 3d c3 ec 94 bc b8 b3 0e bd
       0.07074582 0.07828701 -0.018179303 -0.034839362
000020 ea 17 92 3c c8 32 4a bd bb 72 f8 3c ff 0b 3d bc
       0.017833669 -0.049364835 0.030328145 -0.011538505
000030 ed 26 56 bd dd 7c 3f bd eb bb 63 bd 42 1c 63 3c
       -0.052283216 -0.04674994 -0.055599134 0.013861718
000040 34 38 41 3d 0b 05 43 3d e0 4b df bc 6d 8f 0c bd
       0.04717274 0.04761223 -0.02725786 -0.03431647
000050 4f b1 1e bd 23 1d 26 bd 6b 34 55 bc e4 28 92 bd
       -0.038743313 -0.04055513 -0.013012986 -0.071367055
000060 19 2d 39 3d 00 eb 74 bd 41 af 14 bd 6a f5 62 3d
       0.045209024 -0.059794426 -0.036299948 0.055409826
000070 fe 24 67 bd 91 85 cf 3c 8d 21 74 3d 4e b1 80 3d
       -0.056431763 0.025332244 0.05960231 0.06283818
000080 76 5e 1e 3d b4 e2 d9 bc f3 ad 05 3d 4e 87 2f bc
       0.038664304 -0.026597358 0.032636594 -0.0107134115
000090 f7 36 ed bc 84 7e fd bb d5 cd 8a 3c fb c2 1f 3d
       -0.028956873 -0.007736029 0.016943851 0.039004307
0000a0 65 49 f3 3c 37 05 de 3c 27 84 20 3b a8 7c 34 bc
       0.029698083 0.027102096 0.0024492831 -0.0110160485
0000b0 52 9d 16 3d 64 12 ca 3c 02 3a 7c bd fe 97 89 3b
       0.036771126 0.024666972 -0.061578758 0.004199027
0000c0 66 5e 03 bd b5 c3 fd bc aa 38 ae 3c 2c 28 e9 3b
       -0.032072447 -0.03097711 0.021267254 0.0071153846
0000d0 10 67 8c 3b 3d c7 26 bd 47 53 ca 3c d8 99 95 3d
       0.004284747 -0.040717352 0.024697913 0.07304734
0000e0 80 d4 41 3a 7e a3 ae 3c 3c 3a 65 bd 88 55 0b 3d
       0.00073940307 0.021318194 -0.05596374 0.034017116
0000f0 a0 e2 8b 3c 0e 1f c4 3c 49 22 da 3c a8 d4 85 bc
       0.017075837 0.02394059 0.026627677 -0.016336754
000100 e4 8a 31 bc 04 e7 9c 3d a1 4e 76 3d 95 91 68 bd
       -0.010836337 0.0766125 0.06013358 -0.056779463
000110 f8 10 4c 3d 13 81 8e 3d e9 35 ee 3a cc 05 42 bd
       0.04982087 0.06958213 0.0018174025 -0.04736881
000120 cc 66 ac 3c 69 bc dc bb 50 ca 2f 3d 4b a5 7c bd
       0.021045111 -0.0067363274 0.04291755 -0.061681073
000130 94 24 d6 3c d6 a0 cb 3b af 31 4f 3c 5e 62 69 3d
       0.026140489 0.0062142415 0.012646123 0.056978576
000140 88 8b 0c 3c a8 32 47 bd 58 45 3d bd 87 c4 02 bd
       0.008578189 -0.048632294 -0.04620871 -0.031925704
000150 f0 4c 09 3b 3e 32 0b 3d 60 e0 ab bb 67 c8 f7 bc
       0.00209504 0.03398346 -0.0052452534 -0.030246926
000160 14 f5 c0 3c bb 15 7a bd e9 f3 37 3d f8 2f 00 b9
       0.023554362 -0.06105588 0.044910345 -0.00012224901
000170 f4 03 62 3d 55 aa 3b 3d a6 c9 54 3b 17 0d f3 3c
       0.05517955 0.04581674 0.0032468825 0.029669328
000180 d6 f5 0b bd 5d 30 4d 3d 68 5a 09 3d b6 26 5e bb
       -0.034169994 0.05009495 0.033533484 -0.0033897585
000190 57 67 07 3d 99 2e 1d bc 7f 64 7d 3d cc 38 16 3d
       0.033057537 -0.009593629 0.06186342 0.03667526
0001a0 66 5b 6f 3d 20 0c 91 bd f3 37 7a 3d b2 0d 06 3d
       0.058436774 -0.07082391 0.061088514 0.032727905
0001b0 c5 4b 28 3d 83 f5 03 3c b9 59 45 3d 92 c5 96 3d
       0.041087884 0.00805414 0.04818127 0.07361902
0001c0 f6 92 5e bc aa b4 52 bd 84 c9 93 3d 68 df e9 bb
       -0.013584843 -0.051441826 0.072161704 -0.007137228
0001d0 c8 57 14 bd c2 b0 4d 3d 7a 09 41 3d e1 c8 7d 3b
       -0.036216527 0.050217398 0.04712818 0.003872447
0001e0 f7 0d 4f bc 94 2f bf bb 40 f2 91 3d eb a3 4e 3d
       -0.012637607 -0.005834529 0.07126284 0.050449293
0001f0 75 93 27 3d 08 5c 5a 3d 28 88 f4 bc 63 46 b6 3c
       0.04091211 0.053310424 -0.02985008 0.02225036
000200 3d e5 5d bd 9f 27 4a 3d 3a 84 80 bd c5 e7 a0 bd
       -0.054173697 0.049354192 -0.0627522 -0.078567065
000210 3b 74 9f bd c2 4b 10 3d 21 7a 6c 3c 69 f8 04 bc
       -0.07785841 0.0352285 0.014433415 -0.008115866
000220 fa 30 bf 3b 02 fa 12 bd 1c 1b 80 bc 9b 1e 2c bd
       0.005834696 -0.035882957 -0.015637927 -0.042021375
000230 bc 11 c8 bc 4d 96 45 bd ed 3a 13 bb 01 d0 75 3d
       -0.024422519 -0.04823904 -0.0022465542 0.06001282
000240 8e 7f 5c bd 54 66 27 3d 83 76 3b bd 73 13 b8 bc
       -0.053832583 0.040869072 -0.04576732 -0.022470212
000250 9e ed b2 3c b8 2f b4 3b fb 17 4f 3d 28 e2 02 3c
       0.02184182 0.0054988526 0.05055998 0.00798849
000260 51 01 a6 bc de 35 e7 bc 08 28 c7 bb c1 b5 38 bd
       -0.0202643 -0.028223928 -0.00607777 -0.04509521
000270 1c df 43 bd 06 66 b6 bc 25 01 15 3c d8 a0 21 bd
       -0.047820196 -0.022265445 0.009094511 -0.039460033
000280 39 d3 03 bd 30 50 6e 3d 75 aa 96 3d e6 02 89 bc
       -0.03218386 0.05818194 0.07356731 -0.016725015
000290 7a 4c 8c bd 8f 80 09 bd 62 c3 10 3d 22 5f 80 3c
       -0.06850524 -0.03356987 0.03534258 0.015670363
0002a0 e7 9d ef bc ad d6 8b bd 5f 1d ee bc 06 57 c1 bc
       -0.029250098 -0.068280555 -0.02906674 -0.023601066
0002b0 b8 49 06 3d 0d cf dc bc 2c 21 4b 3d ab 43 7c 3c
       0.032785147 -0.026954198 0.049592182 0.015396993
0002c0 36 49 a4 bb 2f 80 64 bd d2 1e 92 3d dc 20 a2 bc
       -0.0050136102 -0.055786308 0.07134785 -0.01979106
0002d0 3e 88 55 3d ae 61 00 bd 54 78 9c bd 1d 54 4f bd
       0.052131884 -0.031343155 -0.07640138 -0.050617326
0002e0 5c b3 0c bd 50 33 69 bc a6 c6 ff bb 49 1a 88 3d
       -0.034350738 -0.014233425 -0.007805663 0.066456385
0002f0 96 23 74 bd bb 9d 2e 3d 28 fe 76 3d 8e 54 be bb
       -0.05960425 0.042630892 0.060300976 -0.0058084195
000300 16 f6 15 bd 68 72 99 bb 2c 0f ae 3c 09 15 21 3d
       -0.03661164 -0.0046828277 0.021247469 0.0393267
000310 69 02 e1 bc 95 e5 87 bc 0e 66 21 bd 1a 44 92 bd
       -0.02746697 -0.016588965 -0.039403968 -0.071418956
000320 75 93 bb 3c 73 36 6a bd ab b0 fc bc e8 07 f3 bb
       0.022897461 -0.057180833 -0.03084596 -0.007416714
000330 3e 0c 58 3d 6a 48 74 3d 5b a4 5e bd b2 72 8f 3d
       0.05274605 0.059639372 -0.05435596 0.07004298
000340 b9 2a 83 3d 46 04 54 3d 23 2b 60 3c 2e 56 6b 3d
       0.06404633 0.051761888 0.01368216 0.057455234
000350 04 4d 22 3d ce 49 6a bd ec 6e 04 bd 1a 19 07 3c
       0.03962423 -0.057199292 -0.032332346 0.008245731
000360 fc 22 51 bd cb 02 a3 bc ba aa 7f 3d 56 0e f0 3c
       -0.051058754 -0.019898793 0.062418677 0.02930371
000370 d2 33 82 3d dd 8e b5 ba 4f 2b 32 bd 1d 90 4f 3d
       0.0635754 -0.0013851781 -0.043498334 0.050674547
000380 ff 4d 58 3b 74 6f 85 3b 80 75 00 bd 40 90 b9 3c
       0.0033005474 0.004072124 -0.031362057 0.022651792
000390 df 58 6b bd 04 8b 5f 3d 23 e0 64 3d 96 02 cf 3c
       -0.0574578 0.054575935 0.055877816 0.025269788
0003a0 97 36 3f 3d 99 49 4d 3d f0 d7 c1 bc 12 33 6a bd
       0.04668292 0.050119016 -0.023662537 -0.05717761
0003b0 39 34 52 3c 80 85 43 3d 6f d9 64 bc 7c b6 2c 3c
       0.012829834 0.047734737 -0.013967856 0.010541555
0003c0 fb 32 3f 3d 04 80 1c 3d 93 96 78 3d de 96 65 3c
       0.04667948 0.038208023 0.060690474 0.01401302
0003d0 54 71 3f 3c 6d b5 b6 bc 98 44 a1 bc 80 72 f5 bc
       0.011684734 -0.022303307 -0.019686028 -0.029961824
0003e0 87 86 5f 3d 0f 87 8d 3d 3b 0e e4 3c a6 a4 61 3b
       0.054571655 0.06910526 0.027838817 0.0034430414
0003f0 af 52 8a bc c8 40 7f bd 15 74 0c bc 42 8f 56 bd
       -0.01688513 -0.06231764 -0.008572598 -0.052382715

weight f4 [100]
000000 31 71 7f 3f 35 c8 80 3f b2 29 81 3f 0d 31 7e 3f
       0.9978209 1.0061098 1.0090849 0.99293596
000010 7c d5 7d 3f 46 07 7f 3f e7 99 7e 3f 2b c9 80 3f
       0.99153876 0.99620473 0.99453586 1.0061392
000020 a6 19 81 3f 49 25 81 3f 1a 13 81 3f 24 69 7e 3f
       1.0085952 1.0089504 1.0083954 0.9937918
000030 e5 31 81 3f 23 2e 81 3f a8 1f 81 3f 0b 44 81 3f
       1.0093352 1.0092205 1.0087786 1.009889
000040 8f 30 81 3f 59 fc 80 3f 09 ed 7d 3f bf 88 80 3f
       1.0092944 1.007701 0.9918981 1.0041732
000050 33 16 81 3f 96 93 80 3f 4e 28 81 3f e8 c2 7d 3f
       1.00849 1.004504 1.0090425 0.9912553
000060 9b 25 81 3f 4b 2a 81 3f a3 24 81 3f 60 44 7e 3f
       1.0089601 1.0091032 1.0089306 0.9932308
000070 26 13 81 3f 09 77 7e 3f 5e e4 80 3f b8 08 81 3f
       1.0083969 0.99400383 1.0069692 1.0080786
000080 d0 59 81 3f e2 17 81 3f e2 1d 7f 3f e6 f4 80 3f
       1.0105534 1.0085413 0.9965497 1.0074737
000090 64 08 81 3f e4 c9 7f 3f 39 1e 81 3f f2 b5 80 3f
       1.0080686 0.99917436 1.0087348 1.0055525
0000a0 0a ab 80 3f f8 5d 7f 3f 1b 3b 7f 3f ee 8d 80 3f
       1.0052197 0.9975276 0.9969956 1.0043314
0000b0 ad f6 80 3f 23 45 81 3f 7c 37 81 3f 06 96 7e 3f
       1.007528 1.0099224 1.0095057 0.9944767
0000c0 86 3c 81 3f 48 b5 7f 3f e3 67 7f 3f 62 35 81 3f
       1.0096595 0.9988599 0.99767894 1.0094416
0000d0 2d fa 80 3f 97 1c 81 3f 4f 57 7f 3f b5 0c 81 3f
       1.0076348 1.008685 0.997426 1.0082003
0000e0 c0 c3 80 3f 71 38 81 3f 5d f9 80 3f 52 37 81 3f
       1.0059738 1.009535 1.00761 1.0095007
0000f0 91 aa 7e 3f 8c 1f 80 3f 46 89 7d 3f fc 54 7e 3f
       0.99479014 1.0009627 0.9903759 0.99348426
000100 4b cd 7e 3f 8e 3a 81 3f 8d ed 80 3f c3 6c 7f 3f
       0.99532 1.0095994 1.0072495 0.9977533
000110 3d 55 80 3f 22 02 7f 3f 9a 81 80 3f 87 33 81 3f
       1.0026013 0.9961263 1.0039551 1.009385
000120 f3 11 81 3f 7a 88 7f 3f 72 b7 7d 3f f2 3b 81 3f
       1.0083603 0.9981762 0.9910804 1.0096419
000130 fb 3a 7e 3f d1 bf 7d 3f 92 ad 80 3f 24 1e 81 3f
       0.9930875 0.99120814 1.005297 1.0087323
000140 26 9f 7f 3f 87 bd 7e 3f 0b 30 81 3f 8f 00 81 3f
       0.99852216 0.99507946 1.0092787 1.0078295
000150 7d 21 81 3f db 34 81 3f 9f 27 7e 3f b8 dd 7e 3f
       1.0088345 1.0094255 0.99279207 0.99557066
000160 ca 10 80 3f 99 83 7e 3f 83 46 80 3f 5f 3f 81 3f
       1.0005124 0.9941955 1.0021518 1.0097464
000170 b2 e8 7d 3f 0a 1a 80 3f 39 bf 7d 3f 8d 7b 7e 3f
       0.9918319 1.0007946 0.9911991 0.99407274
000180 58 09 80 3f 1c 3c 81 3f fd 65 80 3f 51 88 7e 3f
       1.0002851 1.0096469 1.0031124 0.9942675

bias f4 [100]
000000 31 04 fd 3b 59 b0 a1 bb f2 c3 85 3b 65 0f 15 bb
       0.007721447 -0.0049343524 0.0040821964 -0.0022744772
000010 c7 d9 51 39 39 54 dd bb e6 64 f3 3b 17 74 0f 3c
       0.00020012922 -0.006754425 0.0074277995 0.008755705
000020 55 7a 07 bb 9c 13 89 3a 7c a6 51 bb 6f 00 7f 3b
       -0.002067228 0.0010458115 -0.0031990102 0.003891017
000030 e0 5f 08 3c df 06 1e bb b2 5b 30 3b 05 51 01 3c
       0.00832364 -0.0024112982 0.0026910123 0.007892852
000040 ba 05 9f bb 4f c6 b2 3b d7 07 86 bb 66 e2 84 bb
       -0.0048529776 0.005455769 -0.00409029 -0.004055309
000050 16 59 e2 3b b4 61 96 bb 50 b8 c4 ba 35 36 76 ba
       0.0069075925 -0.004589284 -0.0015008543 -0.0009392233
000060 10 6d 68 bb b8 14 00 3c 21 80 d7 3b af 3e 89 bb
       -0.0035465397 0.00781744 0.0065765535 -0.0041883807
000070 e3 94 04 3b 2a d9 fc 3b ed 89 a6 bb 19 78 f2 3b
       0.0020230345 0.0077163177 -0.00508236 0.0073995707
000080 84 31 af 3b 83 29 31 bb aa 89 a1 bb f6 2d 6b bb
       0.005346479 -0.00270328 -0.004929741 -0.003588555
000090 c2 3a 4f bb a0 0b 02 3c 30 52 9e bb ee 8f 13 3c
       -0.0031620716 0.007937342 -0.004831575 0.0090064835
0000a0 6d 3d b8 bb 52 c7 ce bb 6f 6b e2 bb 8b 82 ee 3b
       -0.005622557 -0.006310382 -0.0069097797 0.0072787455
0000b0 f2 af ff 3b f6 15 86 3b 00 98 e7 3b b2 ba a5 bb
       0.0078029567 0.0040919734 0.0070676804 -0.005057656
0000c0 6a e0 b2 3b a7 1f 93 bb 00 b8 6c 3b 14 36 de bb
       0.005458881 -0.0044898572 0.0036120415 -0.006781349
0000d0 c5 f8 ea bb f2 10 96 bb f7 0a 6b bb 72 9d b5 bb
       -0.007170769 -0.0045796568 -0.003586469 -0.0055424506
0000e0 5a 7f 0b 3c 61 fb 8c 3b 00 a8 14 3c df 0f 88 bb
       0.00851425 0.0043024276 0.009073257 -0.0041522826
0000f0 e9 2b ee ba 7e ec b5 bb 81 dc 31 bb fc 77 2a bb
       -0.0018171045 -0.0055518737 -0.0027139487 -0.0026011458
000100 61 a9 b7 3b 83 df f6 3a b8 ec ac ba 30 c9 75 bb
       0.0056049083 0.0018834922 -0.0013193106 -0.003750395
000110 a0 18 aa 3b 50 98 7d 3b 20 d4 2e b9 1a b6 79 3a
       0.005190924 0.0038695522 -0.00016672956 0.00095257314
000120 79 35 8d 3b fa 8f 08 3c 5b b0 6a ba 10 e7 ab bb
       0.004309353 0.008335108 -0.00089526706 -0.0052460507
000130 cf 83 5c bb 24 12 c4 bb 2f 33 77 3b e4 ac 25 39
       -0.00336479 -0.005983608 0.0037719717 0.00015800033
000140 4b d1 b5 bb eb f4 96 b9 26 06 04 3c 4b 4f 43 bb
       -0.0055486313 -0.00028792708 0.0080581065 -0.00298019
000150 ea 0a bd 3b 09 2e a2 3b 74 8f be bb ed 24 cb bb
       0.0057691233 0.0049493355 -0.005815441 -0.0061994703
000160 90 0c fd ba 9d 36 b5 3b 88 4d 2d 3b 42 c0 f5 3b
       -0.0019306112 0.005530192 0.0026443917 0.0074997256
000170 96 be 0e 3b 60 dd e8 3b c2 20 e2 3b 8d dc 81 bb
       0.0021781079 0.007106468 0.0069008777 -0.0039630593
000180 d8 69 0e 3c c0 a8 90 3b d7 9a ea 3b 7e 12 72 3b
       0.008692227 0.004414648 0.0071595716 0.0036937292

running_mean f4 [100]
000000 16 e4 e4 3d 4b 88 44 3e 00 00 51 3e 0c 4c 19 3e
       0.111763164 0.19192617 0.20410156 0.14970416
000010 61 3f 1a 3e bc fd 2c 3e c8 43 db 3d 2e c1 1e 3e
       0.1506324 0.16893667 0.107062876 0.1550338
000020 58 75 3b 3e a8 27 35 3e 7f e4 6f 3e 4b ab 15 3e
       0.18306482 0.17690909 0.23427008 0.14616124
000030 93 9d 30 3e fa b6 52 3e 92 c4 21 3e 6b 80 06 3e
       0.1724761 0.20577613 0.15797642 0.13134925
000040 45 14 21 3e c5 db 3f 3e a1 4f fe 3d 7b c1 22 3e
       0.15730388 0.18736179 0.12417532 0.1589412
000050 2d 99 4b 3e e4 ee 32 3e e6 0c 64 3e ad 03 ea 3d
       0.1988265 0.17473942 0.22270545 0.11426482
000060 3a 55 19 3e 10 80 2a 3e 94 c8 32 3e 13 9b 1a 3e
       0.14973918 0.16650414 0.17459327 0.15098219
000070 9d 54 3e 3e 12 7e 03 3e 18 c5 1e 3e ee 05 4c 3e
       0.18586965 0.12841061 0.15504873 0.19924137
000080 a4 7e 52 3e d3 f7 12 3e 7a 7d 35 3e 8e 04 24 3e
       0.20556122 0.1435235 0.17723647 0.16017362
000090 b7 1a 63 3e ba 54 0d 3e 94 99 35 3e 9f 56 28 3e
       0.2217816 0.13801852 0.17734367 0.16439293
0000a0 fe 74 18 3e 01 4f 78 3e ac e5 f4 3d 3d 55 12 3e
       0.14888379 0.24248888 0.11957869 0.14290328
0000b0 14 5f 2c 3e c0 e1 6d 3e c6 fa 38 3e 66 75 10 3e
       0.16833144 0.23230648 0.18064412 0.14107284
0000c0 c5 04 59 3e 9e dc 02 3e 35 90 0e 3e 3f 08 07 3e
       0.21193226 0.12779471 0.13922198 0.1318674
0000d0 03 6e 2d 3e 8d 66 3b 3e 55 69 0d 3e 18 86 2b 3e
       0.16936497 0.18300839 0.13809712 0.16750371
0000e0 ce 2c 1d 3e c9 f2 2e 3e 52 b7 e6 3d 00 e0 11 3e
       0.15349123 0.17084803 0.11265434 0.14245605
0000f0 70 ad 05 3e 2c 3e e5 3d c5 44 04 3e ef 93 16 3e
       0.13054442 0.11193499 0.12916858 0.1470487
000100 72 e8 d9 3d 3d 22 42 3e ba 23 71 3e fe 2b fb 3d
       0.106400385 0.18958373 0.23548785 0.1226425
000110 10 b3 01 3e 14 85 11 3e 26 69 21 3e 9e 43 1c 3e
       0.12665963 0.14210922 0.15762767 0.15260169
000120 cc 87 0a 3e a2 0b 24 3e b9 36 0e 3e fc b7 3b 3e
       0.13528365 0.16020063 0.13888063 0.18331903
000130 24 f1 f5 3d c6 e5 49 3e ad 52 3f 3e 5c a9 80 3e
       0.120088845 0.19716558 0.18683882 0.2512921
000140 86 58 4f 3e 00 32 05 3e cd b0 37 3e 98 12 07 3e
       0.20248613 0.13007355 0.17938538 0.13190687
000150 84 71 23 3e a2 d8 39 3e 57 37 0e 3e 5b a9 22 3e
       0.15961272 0.18149045 0.13888298 0.15884916
000160 63 48 e1 3d 20 c5 06 3e be c3 0e 3e 10 3c e9 3d
       0.11000135 0.13161135 0.13941857 0.11388409
000170 67 db ee 3d 38 e3 07 3e 44 06 19 3e e2 cf 2a 3e
       0.116629414 0.13270271 0.14943796 0.16680863
000180 ec fc 1e 3e ea f4 04 3e d4 25 25 3e a4 18 16 3e
       0.1552617 0.12984052 0.16127712 0.14657837

running_var f4 [100]
000000 04 7e e0 3e b8 12 0b 3f 51 2a 09 3f 10 0c f2 3e
       0.43846142 0.5432544 0.53580195 0.47274828
000010 11 6e e5 3e d1 56 01 3f 13 72 dc 3e 13 79 f8 3e
       0.44810537 0.50523096 0.43055782 0.48529872
000020 2c 85 08 3f 04 03 fb 3e 1e 3f 17 3f dd fb f2 3e
       0.53328204 0.49025738 0.59080684 0.4745778
000030 b1 be f9 3e 49 83 ff 3e ed 03 ec 3e 16 21 e6 3e
       0.48778298 0.4990485 0.46096745 0.44947118
000040 3f bc f0 3e 21 14 02 3f a0 94 e5 3e a1 ce f9 3e
       0.4701862 0.50811964 0.44839954 0.48790458
000050 a9 01 0b 3f 3d 25 02 3f 73 2d 16 3f 9b 0c dc 3e
       0.5429941 0.5083807 0.586631 0.42978367
000060 d5 3f f5 3e 85 87 01 3f cb c2 f1 3e 5f b9 e9 3e
       0.47900262 0.5059741 0.47218928 0.4564924
000070 47 9b fe 3e c4 6d e3 3e a6 40 f3 3e 80 af 06 3f
       0.49727842 0.44419682 0.4751026 0.5261154
000080 3b a0 00 3f 1c e9 fa 3e af 53 03 3f d5 ce f2 3e
       0.5024449 0.49005973 0.51299566 0.47423425
000090 71 47 12 3f 60 2e ef 3e 2d bd 04 3f d8 09 fa 3e
       0.5714026 0.4671507 0.5185116 0.48835635
0000a0 c1 01 f2 3e 21 94 1f 3f b2 1e e8 3e 26 e5 e7 3e
       0.47266963 0.623354 0.4533592 0.45292014
0000b0 44 c0 fd 3e e7 d0 0c 3f 1f be 06 3f 90 ce e9 3e
       0.4956075 0.5500626 0.5263385 0.45665407
0000c0 81 76 06 3f 91 40 ea 3e 31 73 e8 3e 11 07 e3 3e
       0.5252457 0.45752385 0.45400384 0.4434133
0000d0 43 ff f6 3e 20 77 05 3f fe 4e f1 3e 2e 9b fe 3e
       0.48241624 0.52134895 0.4713058 0.49727768
0000e0 f7 65 fa 3e c5 df 00 3f 94 73 de 3e af 21 ec 3e
       0.48905918 0.50341445 0.43447554 0.4611945
0000f0 85 a6 e7 3e 07 f5 e3 3e 6a 0f e6 3e 46 5c ec 3e
       0.45244232 0.4452288 0.44933635 0.4616415
000100 91 16 d8 3e de 7e 05 3f d8 12 1a 3f ca 2d e3 3e
       0.42204717 0.5214671 0.60185003 0.44370872
000110 63 7b e5 3e 9e df f1 3e 42 40 ed 3e 3e c8 f3 3e
       0.448207 0.4724092 0.46338087 0.4761371
000120 f8 e2 e0 3e 2b 23 fb 3e e3 e0 e8 3e 4a 7b 0a 3f
       0.43923163 0.4905027 0.45484075 0.54094374
000130 cc 24 dc 3e 1f 05 07 3f 9b 37 02 3f e4 84 0b 3f
       0.42996824 0.5274219 0.508661 0.5449965
000140 23 61 f8 3e d8 e6 e8 3e 72 2f fe 3e e2 ef e6 3e
       0.4851161 0.4548862 0.49645573 0.4510489
000150 ba 2f f1 3e f0 34 fe 3e b1 df ec 3e 24 ec f5 3e
       0.47106725 0.49649763 0.46264413 0.48031723
000160 4c c0 e1 3e 49 7b df 3e 9c 6c ea 3e 56 ed dc 3e
       0.44092023 0.43648747 0.45785987 0.43149823
000170 9a 3d e1 3e ea 31 ec 3e 38 75 ed 3e 7b cc 00 3f
       0.4399231 0.4613183 0.46378493 0.5031201
000180 ee c8 f9 3e 3e b9 dd 3e ae 78 f8 3e f9 b9 f7 3e
       0.4878611 0.4330539 0.4852957 0.48384073
